mnist/part2-mnist/mnist_model_fully_connected.pt (torch_old, 921634 bytes, 8 tensors)

weight f4 [32, 1, 3, 3]
0	0x3e91a259	0.28444174
1	0xbd075ce0	-0.033047557
2	0xbf5d02b9	-0.8633228
3	0x3e395758	0.18099725
4	0x3f70573d	0.93883115
5	0x3e47705f	0.1947646
6	0xbf2ac1a8	-0.66701746
7	0x3e98518e	0.2974972
8	0x3d217219	0.039415453
9	0xbeedf5ad	-0.46476498
10	0x3e955e7c	0.29173648
11	0x3e2ac9eb	0.16678588
12	0xbea67b74	-0.32516062
13	0x3de4cf7d	0.11172388
14	0x3eaa77ed	0.3329462
15	0xbecc64c1	-0.3992062
16	0x3e7dba9b	0.24778216
17	0x3eecb5fd	0.46232596
18	0xbe6e546c	-0.23274392
19	0xbe0c9859	-0.13729991
20	0xbe741e75	-0.23839743
21	0xbec9b95d	-0.39399233
22	0xbeabb41c	-0.3353585
23	0xbcc57eb6	-0.024108272
24	0xbead9a61	-0.33906844
25	0x3e72bc43	0.23704629
26	0x3ebf1acc	0.37325132
27	0xbe3cb599	-0.18428649
28	0xbeb51e41	-0.35374644
29	0x3ca6c329	0.020356731
30	0x3d1ddeb3	0.03854246
31	0x3e1783f0	0.14796424
32	0x3dd4fee7	0.10400181
33	0xbe923b0d	-0.28560677
34	0x3cb71caf	0.022352545
35	0x3eb5f3e9	0.3553765
36	0x3e5589d8	0.20853364
37	0x3eef2e49	0.46715
38	0xbda95b34	-0.08269349
39	0x3cacfa97	0.021115584
40	0xbdc320e1	-0.095277555
41	0xbf1df53f	-0.6170234
42	0x3ecc9977	0.39960834
43	0xbd8e787e	-0.06956576
44	0x3d11fe1f	0.03564274
45	0x3d1c0bef	0.03809732
46	0xbef4f649	-0.4784415
47	0xbe763ce3	-0.24046664
48	0x3e8ed993	0.2790037
49	0xbf1b0d4a	-0.6056715
50	0xbf02e1b7	-0.51125664
51	0x3f3abe74	0.7294686
52	0x3f1e9a33	0.6195404
53	0x3e9d7d81	0.30759814
54	0xbe519aa6	-0.2046915
55	0xbf2e99b9	-0.6820331
56	0xbee6abf4	-0.45053065
57	0xbedd8ea6	-0.43272895
58	0x3d850ab9	0.06496186
59	0x3f246ab1	0.642253
60	0x3f1d34df	0.614088
61	0x3f0fe5c3	0.56209964
62	0xbe846d3e	-0.25864595
63	0x3e068457	0.13136421
64	0xbec06d2a	-0.37583286
65	0xbe3c4359	-0.18385066
66	0x3eb3813c	0.35059536
67	0xbe3cd9c3	-0.18442445
68	0x3dd399ad	0.10332046
69	0x3e93fda9	0.28904465
70	0xbd4e4b93	-0.050365042
71	0x3dc2f601	0.09519578
72	0x3ee7de2d	0.45286694
73	0xbecc4955	-0.39899698
74	0xbf3ae167	-0.73000187
75	0x3ea02c49	0.31283787
76	0x3e9e154c	0.30875623
77	0xbc888640	-0.016665578
78	0xbc63fbba	-0.013914997
79	0x3e9d67f4	0.30743372
80	0x3e574cc7	0.21025382
81	0xbe479c09	-0.19493116
82	0x3e163720	0.14669466
83	0xbe91c5bc	-0.28471172
84	0x3e4c2447	0.19935714
85	0x3d12e4ed	0.035862852
86	0xbf22967a	-0.6351086
87	0x3ef604f0	0.48050642
88	0x3eede716	0.46465367
89	0xbf0a9645	-0.54135543
90	0xbd7a5cc3	-0.06112362
91	0x3e0770b8	0.13226593
92	0xbd576d40	-0.052594423
93	0xbd68e137	-0.056855407
94	0xbe661726	-0.22469768
95	0x3e6c2b88	0.23063481
96	0xbea0563d	-0.31315795
97	0x3e89cf66	0.26916045
98	0xbd401c68	-0.04690209
99	0xbd31567c	-0.04329537
100	0xbed5a0f7	-0.4172437
101	0xbe5c3cb3	-0.2150753
102	0xbef8efd4	-0.48620474
103	0xbde08f5c	-0.10964844
104	0xbe6af9e4	-0.22946888
105	0xbe4fd862	-0.20297387
106	0xbd1c7376	-0.03819605
107	0x3d94dbb7	0.0726847
108	0xbde10106	-0.10986523
109	0xbe4403ac	-0.19142026
110	0xbda2cd70	-0.0794934
111	0xbe5f60a7	-0.21814214
112	0xbeb86995	-0.36018053
113	0xbe979576	-0.29606217
114	0x3e9b8d4d	0.3038124
115	0x3dcd6e79	0.100308366
116	0xbea6f3e3	-0.32607946
117	0x3e76dee8	0.2410847
118	0xbda3a308	-0.0799008
119	0xbf05d327	-0.5227532
120	0xbe37fd1c	-0.17967647
121	0xbe1d7472	-0.15376452
122	0xbe989221	-0.29798988
123	0x3ed5b8aa	0.4174245
124	0x3e1e2909	0.15445341
125	0x3f02e7fa	0.5113522
126	0xbeaa5b1e	-0.33272642
127	0xbe74bab3	-0.23899345
128	0x3e00b542	0.12569144
129	0x3f03b645	0.51449996
130	0x3f0e4c6d	0.55585366
131	0x3ee546a5	0.4478046
132	0xbe742b86	-0.23844728
133	0xbeacedc7	-0.3377516
134	0xbf0a39f2	-0.5399467
135	0xbee9edcd	-0.4568924
136	0xbf16c6dd	-0.5889719
137	0xbedb4ab3	-0.42830428
138	0xbe2016cc	-0.15633696
139	0x3e4151df	0.18878888
140	0x3e7cfe8b	0.24706475
141	0xbd0c8fb4	-0.034316733
142	0x3ed4ba89	0.41548565
143	0x3e532caa	0.20622507
144	0xbf0d6372	-0.55229867
145	0x3e690eb6	0.22759518
146	0x3f05fd19	0.5233932
147	0xbf350d79	-0.7072368
148	0x3e83dcc0	0.25754356
149	0x3ed663f7	0.41873142
150	0xbeef6f10	-0.4676442
151	0x3e28ac07	0.16471873
152	0x3d9984f7	0.07496064
153	0xbf3ee8fe	-0.7457427
154	0x3ef7e7b4	0.48418963
155	0x3f08af06	0.53392065
156	0xbd2b0dfa	-0.041761376
157	0x3f85d75e	1.045635
158	0xbee138fa	-0.43988782
159	0x3f13a2a4	0.57670045
160	0x3ec5e889	0.38653973
161	0xbf5d2807	-0.863892
162	0x3f54aeea	0.830794
163	0x3ee11a87	0.4396555
164	0x3f174be5	0.5910018
165	0xbe54abb6	-0.20768628
166	0x3eb56066	0.3542511
167	0xbdb8098c	-0.08986196
168	0xbf4c6bc1	-0.7985192
169	0xbf836ed1	-1.0268193
170	0xbe503697	-0.20333324
171	0x3dfb3fbf	0.12268018
172	0x3cbb8d92	0.022894654
173	0xbc06f86a	-0.008237937
174	0xbe5e7729	-0.21725143
175	0xbe1caa85	-0.15299423
176	0xbea3508f	-0.318974
177	0xbe89b207	-0.26893637
178	0xbe85b63c	-0.26115596
179	0x3e20831f	0.15675019
180	0x3f1d3d62	0.6142179
181	0x3f273072	0.65308297
182	0xbeaa69c3	-0.33283815
183	0x3edaf991	0.4276853
184	0xbf03935b	-0.5139672
185	0xbf281f5a	-0.6567284
186	0xbe1d75f4	-0.15377027
187	0xbecc9755	-0.39959207
188	0xbd3dd003	-0.046340954
189	0x3e93c076	0.28857774
190	0x3d14dd21	0.036343697
191	0xbed2db49	-0.41182926
192	0x3ed1ed45	0.41001335
193	0xbe85fc99	-0.2616928
194	0xbe79acb1	-0.24382283
195	0x3e0e893c	0.13919538
196	0x3d97fcad	0.07421241
197	0xbe4c040d	-0.1992342
198	0x3d1ff76c	0.03905432
199	0xbc9a3a83	-0.018826729
200	0xbe3b2aa4	-0.18277985
201	0xbe49e3c0	-0.19715786
202	0x3e657ab6	0.22410092
203	0xbe575a9b	-0.21030657
204	0xbe181e72	-0.14855364
205	0x3ddc8a2a	0.1076854
206	0xbc511375	-0.012760987
207	0xbeafcd55	-0.34336343
208	0x3ea26025	0.31713977
209	0xbcd7e00a	-0.026351947
210	0xbedd2bb1	-0.43197396
211	0x3e959a7c	0.29219425
212	0x3e427975	0.18991645
213	0xbef7f8d5	-0.4843203
214	0x3e93d13b	0.28870568
215	0x3d1e41a5	0.038636822
216	0xbe2b427a	-0.16724578
217	0x3eb8e869	0.36114815
218	0x3e255654	0.16146213
219	0xbdc3d1d4	-0.09561506
220	0x3d4f2da6	0.050580643
221	0x3f01ff6c	0.5078037
222	0xbf0ec1d3	-0.557645
223	0xbec990df	-0.3936834
224	0xbd12defb	-0.035857182
225	0xbe3b2a61	-0.18277885
226	0x3e4d844c	0.20069999
227	0xbea4c86e	-0.32184166
228	0x3e788c65	0.24272306
229	0x3eb5429a	0.35402375
230	0xbdb60681	-0.08887959
231	0xbe120c9b	-0.14262621
232	0x3d6c3782	0.057670124
233	0x3dc3b990	0.095568776
234	0xbe957a6d	-0.29194966
235	0xbe17601b	-0.14782755
236	0xbe7b4429	-0.2453772
237	0x3ebf5b3c	0.37374294
238	0xbe8a2c2f	-0.26986834
239	0xbedf65bf	-0.43632314
240	0xbd602f0f	-0.05473238
241	0x3ecfd5f7	0.4059293
242	0x3f0ec2cb	0.5576598
243	0x3ebc7ab1	0.36812356
244	0x3da3fe82	0.08007528
245	0xbe65cf9b	-0.22442476
246	0x3c7391f0	0.014866337
247	0x3e318d50	0.17339063
248	0xbe56a7d0	-0.20962453
249	0xbeacd477	-0.33755848
250	0xbdcba7e3	-0.09944131
251	0xbe7c1cb6	-0.24620327
252	0xbef5ed32	-0.48032528
253	0xbf09570f	-0.53648466
254	0x3d9a75e6	0.075420186
255	0xbee29570	-0.44254637

bias f4 [32]
0	0xbe774022	-0.24145558
1	0xbe1fd701	-0.15609361
2	0x3e3a6b6b	0.18205039
3	0xbe02df8f	-0.12780593
4	0xbe481076	-0.1953753
5	0xbe2b9a99	-0.16758193
6	0xbd8aab76	-0.06770985
7	0xbe02c4e8	-0.12770426
8	0xbe99ee6e	-0.3006472
9	0xbc93ee2c	-0.018057905
10	0xbe9c8933	-0.30573425
11	0x3f032bf0	0.5123892
12	0x3e80862f	0.25102374
13	0xbe01e389	-0.12684454
14	0xbce1ffbe	-0.027587768
15	0x3d16f0a6	0.036850594
16	0xbd184a97	-0.03718051
17	0xbf283175	-0.65700465
18	0xbd995fc7	-0.07488971
19	0xbe1152a5	-0.14191683
20	0xbb533df6	-0.0032232977
21	0xbd3123b5	-0.043246944
22	0xbd43bbe6	-0.047786616
23	0x3d1233da	0.03569398
24	0xbd25707e	-0.040390484
25	0xbe1c7d4b	-0.1528217
26	0xbd38a598	-0.045079798
27	0xbd1b34df	-0.03789222
28	0xbe8ebcab	-0.27878317
29	0xbe688a10	-0.22708917
30	0xbe467677	-0.19381128
31	0x3d77caf5	0.06049629

weight f4 [64, 32, 3, 3]
0	0xbd99d4d0	-0.07511294
1	0x3d8b190c	0.06791887
2	0x3cd06b11	0.025441678
3	0x3af6c9df	0.0018828473
4	0xbdd093d2	-0.101844445
5	0xbd9be3c6	-0.07611804
6	0x3c86bd9c	0.016447835
7	0x3e0d3e00	0.13793182
8	0x3cca1a72	0.024670813
9	0xbda0dab5	-0.07854215
10	0x3c48b6bd	0.012250599
11	0x3e22596c	0.15854424
12	0xbd986c34	-0.07442513
13	0xbd2868b4	-0.041115478
14	0xbc890124	-0.016724177
15	0x3cb3e39c	0.021959119
16	0x3d4e7b31	0.050410453
17	0xbc34f10a	-0.011043796
18	0x3cb0d16e	0.021584239
19	0xbd9f23ec	-0.077705234
20	0xbd9a732e	-0.075415
21	0xbb03bb0e	-0.0020100507
22	0xbd413d22	-0.04717744
23	0x3bd86468	0.006603766
24	0xbdc0d3e7	-0.09415417
25	0xbcbd6d79	-0.02312349
26	0xbcf8b712	-0.030360732
27	0x3d19177e	0.03737592
28	0xbcd4fef5	-0.02600048
29	0x3b82e0ba	0.0039940747
30	0x3d63e19d	0.055635083
31	0xbd8df0cc	-0.06930694
32	0x3c2f852d	0.010712904
33	0xbc6e6bb5	-0.014552047
34	0xbcba5939	-0.022747623
35	0x3d85b47c	0.06528565
36	0xbd440b6c	-0.047862455
37	0xbd817768	-0.06321603
38	0x3c2e29d9	0.010630094
39	0xbd3e3c0e	-0.04644399
40	0x3cbdc7af	0.023166506
41	0xbd4eda11	-0.050500933
42	0xbc8ff1e8	-0.017571405
43	0xbd004601	-0.03131676
44	0xbbd9e5ed	-0.0066497237
45	0x3c392725	0.011300837
46	0xbdd7c73f	-0.1053605
47	0xbdcb7205	-0.09933857
48	0x3e015198	0.12628782
49	0x3e538d20	0.20659304
50	0x3d9d8e24	0.07693127
51	0x3c2cb1db	0.010540451
52	0x3c4d1e46	0.012519425
53	0x3d3687e2	0.04456318
54	0xbd525958	-0.051354736
55	0xbd823405	-0.06357578
56	0xbd7ad404	-0.06123735
57	0x3d22d0f9	0.039750073
58	0xbbfa1568	-0.0076319464
59	0xbd1da1c5	-0.038484354
60	0x3b9ce08b	0.00478751
61	0x3d856b0a	0.06514557
62	0x3d21af02	0.03947354
63	0xbd984bcd	-0.07436333
64	0xbc09ed11	-0.008418337
65	0x3c91f542	0.017817143
66	0xbc2eb2ad	-0.010662717
67	0x3d87fd2e	0.06640087
68	0x3d2476b4	0.040152267
69	0x3d391625	0.045187134
70	0x3c89988c	0.016796373
71	0x3d0a0701	0.033698086
72	0xbd24770d	-0.0401526
73	0xbd2a775d	-0.04161774
74	0xbc76079a	-0.015016461
75	0xbd784887	-0.060616042
76	0x3c0cac36	0.00858598
77	0x3bc360bc	0.0059624594
78	0x3cf064bb	0.029344907
79	0x3d6397c0	0.055564642
80	0x3b7a015d	0.0038147785
81	0xbda05067	-0.078278355
82	0xbd85980d	-0.06523142
83	0xbcb43c56	-0.022001427
84	0x3d6d9493	0.05800302
85	0x3d1ca499	0.03824291
86	0xbd878031	-0.066162474
87	0x3b2cd328	0.0026370976
88	0x3cc06227	0.023484303
89	0x3d7cb765	0.061698336
90	0x3c9683ca	0.018373389
91	0x3d22c2a0	0.03973639
92	0xbd1cd734	-0.03829117
93	0xbbfccdf8	-0.007714983
94	0xbd2a6978	-0.04160449
95	0xbd6be61c	-0.057592496
96	0xbb6ce3ce	-0.0036146524
97	0xbd1278f1	-0.03575987
98	0x3cbfe52e	0.023424711
99	0x3c17f2c0	0.009274185
100	0xbdf13be6	-0.11779003
101	0xbdf0dda9	-0.11761028
102	0xbda2d5a6	-0.079509065
103	0xbbf9febe	-0.0076292446
104	0xbde28161	-0.11059833
105	0xbd5a7773	-0.053336572
106	0xbdf0b126	-0.117525384
107	0xbdfb0142	-0.12256099
108	0x3d3e6d29	0.046490822
109	0xbd618264	-0.05505599
110	0xbde4fb47	-0.1118074
111	0xbd4c3825	-0.04985823
112	0xbd123e16	-0.03570374
113	0xbc768166	-0.015045499
114	0xbcfd4e14	-0.03092102
115	0xbc4c0f70	-0.012454852
116	0xbdb341f2	-0.087528124
117	0xbd62bd13	-0.055356096
118	0xbddce934	-0.107866675
119	0xbd7b931d	-0.061419595
120	0x3d61a85f	0.05509221
121	0x3d2e14ed	0.042500425
122	0x3b9332b9	0.0044921306
123	0xbcfc5f84	-0.030807264
124	0xbbe8bc7b	-0.0071025467
125	0x3d073ea6	0.03301873
126	0x3d1b095f	0.037850734
127	0x3be11502	0.0068689594
128	0x3d3f1d70	0.046658933
129	0xbd803aa6	-0.06261186
130	0xbd9ecec9	-0.07754285
131	0xbc4577dc	-0.0120525025
132	0x3d843382	0.06455137
133	0xbc26a3d1	-0.010170893
134	0xbd9a8b82	-0.0754614
135	0xbd8a7f4f	-0.067625634
136	0xbdb25729	-0.08708031
137	0xbcce922b	-0.025216183
138	0x3d19e981	0.037576202
139	0xbd257c88	-0.040401965
140	0xbddfc760	-0.109267
141	0xbcf15799	-0.029460715
142	0x3ca32051	0.01991287
143	0x3da9f00a	0.08297737
144	0x3c13b8b7	0.009016207
145	0x3d929922	0.07158114
146	0x3da02956	0.07820384
147	0xbd42e022	-0.04757703
148	0xbdbd3e3d	-0.09240387
149	0x3c5a518f	0.013325109
150	0xbccc481b	-0.024936726
151	0xbd5011d8	-0.050798267
152	0xbc9f8955	-0.019474665
153	0xbda25b30	-0.07927549
154	0xbd65c44f	-0.056095418
155	0x3db936fc	0.090436906
156	0xbc5a16a5	-0.013311063
157	0xbdf60db7	-0.12014335
158	0xbe22c126	-0.15893993
159	0x3c83d335	0.016091922
160	0xbd0f9578	-0.035054654
161	0x3dadff10	0.08495915
162	0x3c8ce512	0.017199073
163	0x3d813312	0.06308569
164	0x3de8003f	0.11328172
165	0xbdd666a9	-0.104687996
166	0x3d86fce2	0.06591202
167	0x3d611d9d	0.054959882
168	0xbd920f53	-0.07131829
169	0x3d27f44d	0.041004468
170	0xbd01941b	-0.031635385
171	0x3d1a64a3	0.03769363
172	0x3d59ff7d	0.05322217
173	0xbcc8cab6	-0.024510723
174	0xbd35bb62	-0.044368155
175	0xbc9e2121	-0.019302906
176	0xbd57f6f8	-0.052725762
177	0x3d35e298	0.04440555
178	0x3c323890	0.010877743
179	0x3cd886fd	0.026431555
180	0xbe21093f	-0.15726183
181	0xbd4de09f	-0.050263043
182	0xbce7115d	-0.028206522
183	0xbdbd0003	-0.09228518
184	0xbd6d1a0e	-0.057886176
185	0xbcf42899	-0.029804515
186	0xbd8852bf	-0.066564076
187	0xbde7e85c	-0.11323616
188	0xbde874b0	-0.113503814
189	0xbdda695c	-0.10664627
190	0x3b6fd6c0	0.0036596507
191	0xbd002563	-0.031285655
192	0x3cb94a42	0.022618417
193	0x3b8f03cf	0.0043644677
194	0xbcdf5da2	-0.027266327
195	0xbc8aa3c8	-0.0169238
196	0x3c8efc23	0.017454213
197	0xbd73ca99	-0.059519384
198	0x3d24838e	0.040164523
199	0x3c63b937	0.013899139
200	0x3cb3eef4	0.021964528
201	0x3c3626d2	0.011117654
202	0x3d5f9d69	0.054593477
203	0x3ca19ca9	0.019728022
204	0xbcdb5502	-0.026773933
205	0x3d38bfbf	0.04510474
206	0xbc61f834	-0.013792086
207	0xbc2fd5d6	-0.010732135
208	0xbcc84d9b	-0.024451068
209	0x3c3bd314	0.011463899
210	0xbd54372f	-0.05181044
211	0xbd10cf5d	-0.035354007
212	0x3a611926	0.0008586816
213	0xbd9db706	-0.077009246
214	0xbc2a67f9	-0.010400766
215	0xbc78c61b	-0.015183951
216	0xbca2538b	-0.019815227
217	0x3d2ca01a	0.042144872
218	0x3daa1200	0.083042145
219	0xbd2e4c63	-0.042553317
220	0x3b1a1537	0.002351118
221	0x3db091f3	0.086215876
222	0x3d731eca	0.059355535
223	0x3cbe2504	0.02321101
224	0xbd42ab31	-0.047526542
225	0xbdcd6467	-0.10028916
226	0x3cb6fee0	0.02233833
227	0x3d8d2078	0.068909585
228	0x3d299d11	0.041409556
229	0xbd33112c	-0.04371755
230	0xbc8225e8	-0.015887216
231	0x3d7aadb8	0.061200827
232	0xbc8824cf	-0.016619114
233	0x3d51fc77	0.05126616
234	0xbda226cd	-0.07917557
235	0xbdc17ab1	-0.0944723
236	0xbd123eb4	-0.03570433
237	0x3e08fd0e	0.13377783
238	0x3cad07cf	0.021121887
239	0x3be03fda	0.006843549
240	0x3c830159	0.015991854
241	0x3dc9ea9a	0.098592
242	0x3d50d54e	0.050984673
243	0xbbef84c2	-0.007309527
244	0x3b95c339	0.0045703915
245	0xbd013b8f	-0.03155094
246	0xbc8c132b	-0.017098984
247	0xbca565b1	-0.020190092
248	0x3ca15507	0.019693865
249	0x3cb8caa8	0.022557572
250	0x3cf10c03	0.029424673
251	0xbd6317fb	-0.05544279
252	0xbcfbe1c1	-0.030747296
253	0xbdbcd611	-0.092205174
254	0x3d37f8fe	0.04491519
255	0x3d4f6928	0.050637394

bias f4 [64]
0	0xbd8287a2	-0.06373526
1	0xbb514c5b	-0.003193638
2	0x3c2fc503	0.010728124
3	0xbccd621b	-0.025071194
4	0xbd8cb7a1	-0.06870962
5	0xbcb48685	-0.0220368
6	0xbde4bb96	-0.11168592
7	0xbe716104	-0.23572165
8	0xbd6e832e	-0.05823057
9	0xbe6306a5	-0.22170503
10	0xbd4a6290	-0.049410403
11	0xbd015f44	-0.031584993
12	0xbd075f8e	-0.033050112
13	0xbda937c7	-0.08262592
14	0xbdce2df2	-0.10067357
15	0xbd83e2e9	-0.06439764
16	0xbdfe0c4b	-0.124046884
17	0xbd158a5e	-0.03650891
18	0xbd96ef1a	-0.07369824
19	0xbd1cf46d	-0.03831904
20	0xbd9831db	-0.07431384
21	0xbd2f7553	-0.0428365
22	0xbc411a77	-0.011786095
23	0xbd48a6ff	-0.048987385
24	0xbdb7c4f3	-0.08973112
25	0xbd2b3c53	-0.041805577
26	0xbdcdd003	-0.10049441
27	0xbd50c5f7	-0.050970044
28	0xbe1e17f1	-0.1543882
29	0xbcddd3fc	-0.027078621
30	0xbc6ac289	-0.014328607
31	0xbde3e4c6	-0.111276194
32	0xbe0334cc	-0.12813109
33	0xbe7f9ba5	-0.24961717
34	0xbd509bea	-0.05092994
35	0xbd407910	-0.046990454
36	0xbdc427b3	-0.095778845
37	0xba472e29	-0.0007598126
38	0xbd156a51	-0.036478344
39	0xbd37ac16	-0.04484185
40	0xbbdc0de5	-0.0067155235
41	0xbd8beb63	-0.06832006
42	0xbe550e36	-0.20806202
43	0xbd3683ef	-0.044559415
44	0xbd2f9f9b	-0.04287682
45	0xbd9f4bea	-0.07778151
46	0x3d190ab9	0.03736374
47	0xbc7b1307	-0.015324361
48	0xbc16c47b	-0.009202118
49	0xbe170d8f	-0.14751266
50	0xbd0bd988	-0.034143
51	0x3cb89e5b	0.022536447
52	0xbd8da533	-0.06916275
53	0xbe44825d	-0.19190355
54	0xbde6b4ab	-0.112649284
55	0xbd0a1493	-0.033711027
56	0xbd5cf9c9	-0.05394915
57	0xbe5a363b	-0.2130975
58	0xbcd2ef65	-0.025748918
59	0xbd35ee4e	-0.04441672
60	0xbcba4ce3	-0.02274174
61	0xbe4971d8	-0.19672334
62	0xbda70647	-0.08155494
63	0xbd27cfc7	-0.040969636

weight f4 [128, 1600]
0	0xbcba2e42	-0.022727136
1	0x3ade449c	0.0016957703
2	0x3d64b337	0.055834975
3	0x3cb5b03a	0.022178758
4	0x3d0e4583	0.03473426
5	0x3c26091b	0.010134007
6	0xbca4f872	-0.020138
7	0xbccf003f	-0.025268672
8	0x3b369190	0.0027857758
9	0x3c9af487	0.018915428
10	0xbcb3e67b	-0.021960488
11	0xbc95fa36	-0.018307786
12	0x3ba570b4	0.0050488357
13	0x3cd9c553	0.02658335
14	0x3cf11ec0	0.029433608
15	0x3bb8724d	0.00562886
16	0x3d31ab9a	0.043376543
17	0x3d1e77ff	0.038688656
18	0x3c66c3c3	0.014084759
19	0x3cb6f878	0.022335276
20	0xbbe54203	-0.0069963946
21	0x3b55bd5d	0.003261409
22	0x3cb3d4e3	0.021952098
23	0xbb09e172	-0.0021038917
24	0x3ae80216	0.0017700817
25	0xbc835951	-0.0160338
26	0xb708792b	-8.134443e-06
27	0x3b25cbfa	0.0025298581
28	0x3ca35bdb	0.019941261
29	0xbcc1d2e8	-0.023660138
30	0xbcb01e50	-0.02149883
31	0xbb95da1d	-0.0045731203
32	0x3c4b8b74	0.012423385
33	0x3cea7bcc	0.028623484
34	0x3a631867	0.0008662999
35	0xbc2699a0	-0.010168463
36	0xbce8fe1a	-0.028441478
37	0x3d49b995	0.04924925
38	0x3d1ddbdb	0.03853975
39	0x3d140e3e	0.036146395
40	0xbd05b3e8	-0.032642275
41	0xbba1951a	-0.0049311044
42	0x3cac7917	0.021053834
43	0xbc2f8b0f	-0.0107143065
44	0x3b1730b0	0.0023069791
45	0x3c1e8bbe	0.009676872
46	0x3a7b7439	0.00095922087
47	0x3d223a5b	0.039606433
48	0x3c5224fb	0.0128262
49	0xbd197240	-0.037462473
50	0xbbd11cc5	-0.0063816034
51	0xbb1a64e5	-0.0023558673
52	0x3ce1ea82	0.027577642
53	0xbc6f0ed5	-0.014590939
54	0xbb666459	-0.0035155027
55	0xbc9bb539	-0.019007312
56	0xbc608da2	-0.013705643
57	0x3c90447c	0.01761078
58	0xbb8963eb	-0.0041928194
59	0xbbbca93f	-0.0057574804
60	0xbc959f7b	-0.018264523
61	0x3b950672	0.0045478875
62	0x3c4d26cc	0.012521457
63	0x3c65a096	0.014015337
64	0xbc6749c3	-0.014116707
65	0xbc815aba	-0.015790332
66	0x39c90ac3	0.00038345726
67	0xbc8d5b6d	-0.01725551
68	0x3cbca8f6	0.023029786
69	0xbc898a3a	-0.016789544
70	0x3c98a95d	0.018635446
71	0xbc91c45c	-0.017793827
72	0x3bfc4eb5	0.0076998123
73	0x3bf7a52d	0.0075575323
74	0xbc41fa0c	-0.011839401
75	0xbcaeac68	-0.021322444
76	0xbca732cb	-0.020409962
77	0xbd0354c8	-0.032063276
78	0xbda25f51	-0.079283364
79	0xba5f7c87	-0.0008525331
80	0x3cb9c8c4	0.02267874
81	0xbc24de27	-0.010062731
82	0x3c458a23	0.01205686
83	0xbd77f56d	-0.06053679
84	0xbafd5f5e	-0.001933079
85	0x3becb03d	0.0072231577
86	0x3d03a345	0.032138128
87	0x3d74b1bf	0.059739824
88	0x3c985574	0.018595435
89	0xbbd8724c	-0.006605422
90	0x3b5e1262	0.0033885469
91	0xbd69622a	-0.056978382
92	0x3be2cafa	0.0069211693
93	0x3c956dcf	0.018240837
94	0x3bbf2158	0.0058328323
95	0x3c9b1bca	0.01893415
96	0xbd0e71c7	-0.034776475
97	0xbba5fef3	-0.0050657927
98	0xbcc5d705	-0.02415038
99	0x3c2fbab2	0.010725664
100	0x3cbb0c8e	0.022833135
101	0x3ce5a514	0.028032817
102	0x3d5b2a92	0.053507395
103	0x3d42bcad	0.047543216
104	0x3b8d402b	0.004310628
105	0xbca49838	-0.020092115
106	0xbc1f6a00	-0.009729862
107	0x3d4dcfe6	0.050247096
108	0x3d4f5bd1	0.050624672
109	0xbbc86406	-0.0061154393
110	0xb98da691	-0.00027017717
111	0xbcd7f345	-0.026361117
112	0xbd087c47	-0.033321645
113	0x3c4f9946	0.012670821
114	0xbb18462a	-0.002323518
115	0xbc69cdb6	-0.014270237
116	0xbb3ec5a9	-0.0029109514
117	0xbbc3b7a7	-0.005972821
118	0x3ca83f79	0.020538079
119	0xbb801c27	-0.003909606
120	0x3cb6d8c6	0.022320163
121	0x3dbe6ef6	0.09298508
122	0x3ce4c10e	0.027924087
123	0x3b1eb868	0.0024218801
124	0xbd1d81ff	-0.038454052
125	0xbc015a16	-0.007895013
126	0x3a710bd8	0.0009195185
127	0x3d1e37d6	0.038627468
128	0x3ce64556	0.028109234
129	0xbcc080b6	-0.023498874
130	0xbcd75585	-0.026285896
131	0x3c1b9bb8	0.009497575
132	0x3d0204f4	0.031743005
133	0x388baff6	6.660812e-05
134	0xbb2f067e	-0.002670675
135	0xbd0185be	-0.031621687
136	0x3c30dac2	0.010794343
137	0x3da22828	0.079178154
138	0x3d0f6b0c	0.035014197
139	0x3cfa734f	0.030572562
140	0xbd095f84	-0.033538356
141	0x3cf316a0	0.029673874
142	0x3be8329b	0.0070861108
143	0xbb14d01f	-0.0022707058
144	0xbc037e6b	-0.008025746
145	0xbb5054f6	-0.0031788922
146	0x3d1120e5	0.03543176
147	0xbd1eb974	-0.03875108
148	0x3c562c63	0.013072106
149	0xbcabe97d	-0.02098536
150	0xbc822a2e	-0.015889253
151	0xbb41e4f0	-0.002958592
152	0xbcf1f76d	-0.029536927
153	0x3c5d8cf7	0.013522378
154	0x3c9438f9	0.018093573
155	0x3ca36ef9	0.019950377
156	0x3bae4e0f	0.005319364
157	0x3d1f39d0	0.038873494
158	0x3a0ac414	0.00052935
159	0xba09230e	-0.0005231359
160	0xbbfc8a9a	-0.0077069523
161	0x3d2325cf	0.03983098
162	0x3bd6f350	0.006559767
163	0x3c018475	0.007905115
164	0xbc0bea31	-0.008539722
165	0xbc840906	-0.016117584
166	0xbcea6fc4	-0.028617747
167	0xbc3adbd4	-0.01140495
168	0xbd26e738	-0.04074785
169	0xbb1787c6	-0.0023121699
170	0x3afae8ed	0.0019142904
171	0xbccabc84	-0.024748094
172	0xbb9631e9	-0.0045835865
173	0x3bf50c5b	0.0074782795
174	0xbc8986dc	-0.016787939
175	0x3a8200d8	0.0009918464
176	0x3c8a75ba	0.01690184
177	0x3d3c422b	0.04596154
178	0x3df10de8	0.117702305
179	0x3b021f8e	0.0019855234
180	0x3b81ac2a	0.003957291
181	0x3d197845	0.037468214
182	0x3d1044d8	0.035221905
183	0x3cbb64c8	0.022875205
184	0xba298a71	-0.0006467468
185	0xbb612f73	-0.0034360557
186	0xbcf30238	-0.029664144
187	0xbc8d7341	-0.017266871
188	0xbd459c34	-0.04824467
189	0x3bc81ea5	0.0061071687
190	0xbce2afd7	-0.027671738
191	0xbba3d2ab	-0.004999479
192	0xbcd9df25	-0.026595661
193	0xbc97613e	-0.018478986
194	0x3d0c7706	0.034293197
195	0xbba26317	-0.00495566
196	0xbb946d21	-0.0045296107
197	0xbda0c478	-0.078499734
198	0x3c638c2a	0.013888398
199	0xbc468b9d	-0.012118247
200	0x3c1268b4	0.008936096
201	0xbcbd0865	-0.023075292
202	0x3ce86ebe	0.028373118
203	0x3c3b291b	0.0114233745
204	0x3c97b01b	0.01851659
205	0x3b5be761	0.003355466
206	0x3ca3545a	0.019937683
207	0xbd2a3ed5	-0.041563828
208	0xbd016090	-0.03158623
209	0xbca843b0	-0.020540088
210	0xbb93f5b0	-0.004515372
211	0xbc77ce5b	-0.015124883
212	0x3bea1823	0.0071439906
213	0xbb7f9f46	-0.0039004846
214	0x3cb77564	0.022394843
215	0x3c03d983	0.008047464
216	0x3d1d2a72	0.038370557
217	0x3d63b682	0.055593975
218	0x3cd71cee	0.026258912
219	0xbcfc5d92	-0.030806337
220	0x3ca5db48	0.020246163
221	0x3d394e7a	0.045240857
222	0x3ce82fff	0.028343199
223	0x3c3e2330	0.011605069
224	0xbc9e3d20	-0.019316256
225	0xbd001eab	-0.031279247
226	0x3d6ceda2	0.05784381
227	0x3d52db7c	0.051478848
228	0x3da4e5ed	0.08051667
229	0x3c340a69	0.01098881
230	0xbce8b0e7	-0.028404666
231	0x3ca8b9cf	0.020596413
232	0xbd3e5a3c	-0.046472773
233	0x3d56ef1c	0.052474126
234	0x3d65f3af	0.056140598
235	0xbca6781e	-0.020320948
236	0xbd89db2e	-0.06731258
237	0xbcdbd04a	-0.026832718
238	0x3d2f7fba	0.04284642
239	0xbc47e623	-0.012200865
240	0x3c45bc78	0.01206886
241	0xbd14466a	-0.036199965
242	0x3d3bea32	0.045877643
243	0x3acf41c2	0.0015812444
244	0xbdbc1109	-0.09182937
245	0x3c2967dc	0.010339703
246	0x369a6b6d	4.6020637e-06
247	0xbd33eaf6	-0.043925248
248	0xbd010e19	-0.031507585
249	0xbcf90a00	-0.030400276
250	0xbc3b31c5	-0.01142544
251	0xbc0d930a	-0.008641014
252	0xbd0b929b	-0.03407536
253	0xbc53d86b	-0.012930016
254	0x3bcfb96f	0.006339244
255	0x3bbe0661	0.0057991003

bias f4 [128]
0	0xbd61abda	-0.05509553
1	0x3cecd142	0.028908376
2	0xbcbf6da0	-0.023367703
3	0xbc9a0231	-0.018799873
4	0xbcb2f7e7	-0.021846725
5	0xbd4babc9	-0.049724374
6	0x3c830b01	0.015996458
7	0xbd64f82f	-0.05590075
8	0x3c2cc330	0.010544583
9	0x3d8b4e2b	0.06802019
10	0xbca33e02	-0.019927029
11	0x3bda14af	0.0066552977
12	0x3d242407	0.04007342
13	0x3b98ce76	0.004663284
14	0xbd362a79	-0.0444741
15	0xbd958c59	-0.0730216
16	0xbd8912f2	-0.06693067
17	0xbb9f30c4	-0.0048581082
18	0xbda16f84	-0.07882598
19	0xbcbc0b38	-0.022954568
20	0xbcc82234	-0.024430372
21	0x3d0fd9ac	0.035119697
22	0x3c41e0f7	0.011833421
23	0xbd49f25d	-0.0493034
24	0xbc15693f	-0.009119331
25	0x3c797b14	0.015227098
26	0x3d097d54	0.033566788
27	0x3c9b2192	0.018936906
28	0xbd7f2bcb	-0.062297624
29	0x3d4ab79a	0.049491502
30	0x3c9b2ca3	0.018942183
31	0x3d723ade	0.05913817
32	0xbc00fdda	-0.007873023
33	0xbd6a7e0a	-0.057249106
34	0xbd26498a	-0.040597476
35	0xbd845d71	-0.06463135
36	0x3d45ee38	0.048322886
37	0x3d1fadbe	0.038984053
38	0x3d594bee	0.053050928
39	0x3ca6d4e9	0.020365195
40	0x3cc69e94	0.024245538
41	0xbd1dc7dc	-0.03852068
42	0x3c5f443c	0.013627108
43	0x3d990097	0.07470816
44	0x3c5eed41	0.01360637
45	0xbc42bae7	-0.011885381
46	0x3b8593a6	0.004076439
47	0x3ce61c80	0.028089762
48	0x3d888514	0.06666008
49	0x3cc69cf8	0.02424477
50	0xbbae3dc0	-0.00531742
51	0xbcdb4162	-0.026764575
52	0xbd858e87	-0.065213256
53	0x3d282399	0.041049574
54	0x3d918851	0.071060784
55	0x3c35c5bd	0.011094508
56	0x3b0d95be	0.0021604146
57	0xbd4984fb	-0.049199086
58	0x3b79ff39	0.003814651
59	0x3cb9eb59	0.02269523
60	0x3db9f90f	0.09080707
61	0x3ae8e871	0.0017769468
62	0x3c93823b	0.018006435
63	0xbc8c7f79	-0.017150627
64	0xbcc86f55	-0.02446715
65	0xbd6af315	-0.057360727
66	0xbc964c7d	-0.01834702
67	0xbbf41354	-0.007448593
68	0xbd7460d3	-0.05966265
69	0x3d1f1ece	0.038847737
70	0x3d49ac99	0.049236868
71	0xbd37de30	-0.04488963
72	0xbdacf583	-0.08445265
73	0x3d072248	0.032991678
74	0xbcfeaefa	-0.031089295
75	0xbd79bf56	-0.060973488
76	0x3d35363e	0.044241183
77	0xbcf95ca3	-0.03043968
78	0xbd5f5fbc	-0.05453466
79	0x3cfadbb3	0.030622339
80	0x3d0bd38e	0.0341373
81	0xbd0b0fb0	-0.033950508
82	0x3ce3568d	0.027751232
83	0x3cdaf9ea	0.026730496
84	0x3cf6576a	0.03007098
85	0x3cd84cbd	0.02640378
86	0x3d084b0f	0.033274706
87	0x3d0f22f9	0.034945462
88	0x3b8cb3a7	0.004293877
89	0xbbe63cc7	-0.007026288
90	0x3d63e125	0.055634636
91	0x3d2bd178	0.04194781
92	0xbd002776	-0.031287633
93	0xbd22113e	-0.039567225
94	0x3ca7c314	0.020478763
95	0xbbb52b5a	-0.0055288495
96	0x3ce20825	0.027591774
97	0x3d1d7835	0.038444716
98	0x3c66849e	0.014069704
99	0x3cdbcb23	0.026830262
100	0xbd55b191	-0.052171294
101	0xbd68fb76	-0.056880437
102	0xbaba97bb	-0.0014235893
103	0x3d866bb7	0.06563514
104	0xbad6aa82	-0.001637772
105	0x3cf97f5c	0.030456237
106	0xbbaa83ac	-0.005203685
107	0x3d5824e9	0.052769575
108	0xbcf07595	-0.029352942
109	0x3d34ab65	0.044108767
110	0x3d16e368	0.036837965
111	0x3cb1070c	0.021609806
112	0x3ce75b34	0.028241731
113	0xbc9fda51	-0.019513281
114	0x3c08f4cb	0.008359144
115	0x3d22c957	0.039742794
116	0xbd9b4252	-0.07581009
117	0x3cf3e3a7	0.029771639
118	0xbb0dc39e	-0.002163149
119	0xbd1c2c22	-0.038128026
120	0xbd3d211e	-0.04617416
121	0x3d4eb258	0.05046305
122	0x3b27b3db	0.002558938
123	0xbd34f9eb	-0.044183653
124	0xbd87247e	-0.06598757
125	0xba583c3a	-0.00082487206
126	0xbbbbeff5	-0.005735392
127	0x3cc047e6	0.023471784

weight f4 [10, 128]
0	0x3e2be21d	0.16785474
1	0xbe91da0a	-0.28486663
2	0xbdd0c3dc	-0.10193607
3	0xbe59c6b4	-0.21267205
4	0xbe7f72a3	-0.24946074
5	0xbe8837a6	-0.26604956
6	0xbde06964	-0.10957602
7	0xbef13c61	-0.47116378
8	0xbe41ff3d	-0.18945022
9	0x3e0119a1	0.12607433
10	0xbe7f70b5	-0.24945338
11	0xbdf8527d	-0.121251084
12	0xbe3e4c4a	-0.1858379
13	0xbe2f9120	-0.17145205
14	0x3e32c53d	0.17458053
15	0xbe731335	-0.23737796
16	0xbdfa9650	-0.12235701
17	0x3d8f7c83	0.070061706
18	0xbe09eb66	-0.13468704
19	0xbe2de69a	-0.16982499
20	0xbe7035e5	-0.23458059
21	0x3d608368	0.05481282
22	0x3df28ebf	0.11843633
23	0xbd74a8c6	-0.059731267
24	0x3e9b7373	0.30361518
25	0xbe897fdd	-0.26855364
26	0xbe5c1d08	-0.2149545
27	0xbe8aff74	-0.2714802
28	0xbe3698bb	-0.178317
29	0xbbc78fec	-0.006090155
30	0xbbbf4649	-0.005837236
31	0xbdacceba	-0.084378675
32	0xbe5425be	-0.20717523
33	0x3e50692f	0.20352624
34	0xbdc2eb37	-0.0951752
35	0xbe4da3d0	-0.20082021
36	0x3dc54d32	0.096338645
37	0xbe121ffa	-0.1427001
38	0xbe2512cd	-0.16120453
39	0xbe4683e3	-0.19386248
40	0xbe1eff0f	-0.15526985
41	0x3e74a198	0.23889768
42	0x3c7e016b	0.015503268
43	0xbc8f7b35	-0.017514804
44	0x3e08ad16	0.13347277
45	0x3e28b483	0.1647511
46	0x3dc75c6e	0.097344264
47	0xbe9c70cd	-0.3055481
48	0xbe2b354a	-0.16719547
49	0xbd860f98	-0.06545943
50	0xbd3dea69	-0.04636613
51	0xbe152020	-0.14563036
52	0xbe6bae0d	-0.23015614
53	0x3e94e96a	0.2908433
54	0x3e9959b5	0.29951254
55	0xbe361134	-0.1778
56	0xbe59a8e8	-0.21255839
57	0xbe3c7ef3	-0.18407802
58	0x3e7dded5	0.24792035
59	0xbeaafb2e	-0.3339476
60	0x3e257fe8	0.16162074
61	0xbe8d86aa	-0.27641803
62	0xbe373b4c	-0.17893714
63	0xbe3c13d0	-0.18366933
64	0xbe80d1d2	-0.2516008
65	0xbd1d76d7	-0.038443413
66	0x3c653f1b	0.013992096
67	0xbe4771d0	-0.1947701
68	0xbe4708dc	-0.19436973
69	0xbd050f61	-0.03248537
70	0xbe838e0d	-0.25694314
71	0x3e018a99	0.12650527
72	0x3df9861b	0.12183782
73	0x3da54985	0.08070663
74	0xbe0965ca	-0.13417736
75	0x3d054289	0.032534156
76	0x3d8c9ae9	0.06865484
77	0xbe0bdd92	-0.13658741
78	0x3e312241	0.17298223
79	0xbe1a9a54	-0.15097934
80	0x3e5d127d	0.21589084
81	0xbe9b5dce	-0.30345005
82	0xbe08501e	-0.13311812
83	0xbe6c854a	-0.2309772
84	0x3ea2ddd8	0.31809878
85	0xbd6d1a3c	-0.057886347
86	0x3dac08d3	0.084001206
87	0x3d978343	0.07398083
88	0x3e81d634	0.25358737
89	0xbe192431	-0.14955212
90	0x3e4b9289	0.19880117
91	0x3d2a64e8	0.041600138
92	0xbe9623ad	-0.29324093
93	0xbe27f9f8	-0.1640395
94	0x3e82c515	0.25540987
95	0x3e3d4fc8	0.18487465
96	0x3e420ba4	0.18949753
97	0x3e30ca2d	0.17264624
98	0xbe47ada6	-0.19499835
99	0xbd2661cf	-0.04062062
100	0xbe7e7665	-0.24849851
101	0xbe34d8b2	-0.17660788
102	0x3e62eeda	0.22161427
103	0x3e6bf636	0.23043141
104	0x3dc7a6b6	0.097485945
105	0x3e31ee92	0.17376164
106	0xbdc2c127	-0.09509497
107	0xbe151267	-0.14557801
108	0xbe447ef7	-0.19189058
109	0xbe2d9c0a	-0.16954055
110	0xbe956839	-0.29181078
111	0xbe27a0fc	-0.16370004
112	0x3d95501e	0.07290672
113	0x3e128117	0.14307056
114	0xbd132ced	-0.035931516
115	0xbd95085c	-0.07276985
116	0xbe4497c7	-0.19198523
117	0x3dce85f9	0.10084147
118	0x3e1ba6d0	0.15200353
119	0xbe7c7e8e	-0.24657652
120	0xbddab7a2	-0.106795564
121	0x3e4beff3	0.19915752
122	0x3e8293ce	0.2550339
123	0x3e1d25ee	0.153465
124	0x3e3c599f	0.18393563
125	0x3d89e7be	0.067336544
126	0xbe8bec7f	-0.2732887
127	0x3daa0965	0.08302573
128	0xbe5d9862	-0.2164016
129	0x3e14f60f	0.14546989
130	0xbc574ec3	-0.013141337
131	0xbe56c06c	-0.2097184
132	0x3e59d259	0.21271648
133	0xbe044b80	-0.12919426
134	0x3e27301e	0.16326949
135	0xbd8bb2a7	-0.068211846
136	0x3e9dc377	0.3081319
137	0x3e4d394c	0.20041388
138	0xbd928fd0	-0.07156336
139	0x3e13d1e0	0.1443553
140	0x3e5501e7	0.20801507
141	0x3e0dcd95	0.13847955
142	0xbe5b9e4d	-0.21447106
143	0xbe1df930	-0.15427089
144	0xbe4ca9a5	-0.19986589
145	0x3d466940	0.048440218
146	0xbe07c1a0	-0.13257456
147	0x3e7d79b3	0.24753456
148	0x3d087767	0.033316996
149	0x3d25ff09	0.040526424
150	0xbd069b72	-0.032863088
151	0xbe2a0e61	-0.16607048
152	0xbdaeb44f	-0.08530485
153	0x3e5af212	0.21381405
154	0x3e23ad5a	0.15984097
155	0x3e567244	0.20942026
156	0xbdf723b3	-0.12067356
157	0x3e25a32b	0.16175525
158	0xbd5e921a	-0.054338552
159	0x3eab2e18	0.33433604
160	0x3e33e1f7	0.17566667
161	0xbe5a4dce	-0.21318743
162	0xbe759363	-0.23982005
163	0xbe859926	-0.26093405
164	0x3deb6f9a	0.11495896
165	0x3e394264	0.18091732
166	0x3e92f72e	0.28704208
167	0x3e6aa921	0.2291608
168	0x3e5f1be6	0.21787986
169	0xbdf76b67	-0.12081032
170	0x3e062b63	0.13102488
171	0x3e814eb1	0.2525535
172	0xbd3e63e2	-0.046481974
173	0xbe916b94	-0.28402388
174	0xbe054644	-0.13015085
175	0x3e6e282f	0.23257516
176	0x3eb8c58b	0.36088213
177	0x3e4b7fc3	0.19872956
178	0x3d5fc690	0.054632723
179	0xbe516442	-0.20448402
180	0xbe97ed9f	-0.29673478
181	0x3dadc315	0.084844746
182	0x3e70d699	0.23519363
183	0x3df0c995	0.11757199
184	0x3ea8388e	0.32855648
185	0xbe70a9d2	-0.23502281
186	0xbe2b6e0d	-0.167412
187	0x3df5dc8c	0.120049566
188	0x3e83cab7	0.25740597
189	0x3e397234	0.18109971
190	0x3e831e8e	0.2560925
191	0xbcd60043	-0.026123172
192	0x3d0301bb	0.031984072
193	0xbe1bf276	-0.1522921
194	0x3e020c5b	0.12700026
195	0x3ddf0c30	0.108909965
196	0x3ce108b6	0.027469974
197	0x3e767f67	0.24072038
198	0x3e537465	0.2064987
199	0xbe624c49	-0.22099413
200	0xbea5503e	-0.32287782
201	0x3e2bf016	0.16790804
202	0x3c47423e	0.012161789
203	0xbe9cf4b3	-0.3065544
204	0x3e2514a1	0.1612115
205	0xbe1e0f02	-0.15435413
206	0xbea16492	-0.31522042
207	0x3e43dcec	0.19127244
208	0x3eae320e	0.34022564
209	0x3c578293	0.01315369
210	0x3db694fa	0.08915134
211	0x3e4dce32	0.20098189
212	0xbddee1de	-0.108829245
213	0x3dc434cc	0.09580383
214	0x3e4ba683	0.19887738
215	0xbdaafa89	-0.08348567
216	0xbe2401b2	-0.16016272
217	0x3ea0e410	0.31423998
218	0x3e17a427	0.14808713
219	0x3d2cd796	0.042197786
220	0xbe4f2079	-0.20227231
221	0xbe20309b	-0.15643542
222	0x3d5fe4a9	0.054661427
223	0xbea371ac	-0.31922662
224	0xbe69a720	-0.2281766
225	0x3e7366f5	0.23769744
226	0x3eb7f66f	0.359302
227	0x3e6b338a	0.2296888
228	0xbe85e6d7	-0.2615268
229	0xbd39c92b	-0.045357864
230	0xbe0c10fc	-0.13678354
231	0x3c391103	0.01129556
232	0x3c13e223	0.009026083
233	0x3caced01	0.021109106
234	0xbdbc6725	-0.09199361
235	0x3e66c5d4	0.22536403
236	0x3e323968	0.17404711
237	0x3e8173fc	0.25283802
238	0x3e7b3798	0.24532926
239	0x3df3e0c0	0.11908102
240	0x3e9127e5	0.2835075
241	0xbe14ca22	-0.14530233
242	0x3da4b61c	0.08042547
243	0x3e312c86	0.1730214
244	0xbe4eb742	-0.20187095
245	0x3d940061	0.07226635
246	0x3dcac15d	0.09900162
247	0xbe46ba28	-0.1940695
248	0xbe433a5b	-0.1906523
249	0x3e431724	0.19051796
250	0xbe6428ff	-0.22281264
251	0xbe0e1251	-0.13874175
252	0xbe42165b	-0.1895384
253	0x3e08e6d9	0.13369311
254	0x3e217d2d	0.15770407
255	0x3d3b708d	0.045761634

bias f4 [10]
0	0xbd1ef1fc	-0.038804993
1	0x3e4fea27	0.20304166
2	0x3d09fab1	0.033686344
3	0xbdb7ab00	-0.089681625
4	0xbe067f0f	-0.13134407
5	0xbd2c0080	-0.041992664
6	0xbe53b4ec	-0.20674485
7	0x3c8f9c6d	0.017530644
8	0x3e1a61ad	0.15076323
9	0x3c51308b	0.012767921
